…
name: "mini_vgg"
state {
  phase: TRAIN
  level: 0
  stage: ""
}
layer {
  name: "data"
  type: "ImageData"
  top: "data"
  top: "label"
  include {
    phase: TRAIN
  }
  transform_param {
    mirror: false
    mean_value: 127.5
    mean_value: 127.5
    mean_value: 127.5
  }
  image_data_param {
    source: "/home/dell/disk/dell/camlin_zhang/data_fine/label_train.txt"
    batch_size: 32
    shuffle: true
    new_height: 224
    new_width: 224
    root_folder: "/home/dell/disk/dell/camlin_zhang/data_fine/"
    rate_height: 0
    rate_width: 0
  }
}
layer {
  name: "conv1"
  type: "Convolution"
  bottom: "data"
  top: "conv1"
  convolution_param {
    num_output: 96
    kernel_size: 3
    stride: 2
    weight_filler {
      type: "xavier"
    }
    bias_filler {
      type: "constant"
      value: 0.1
    }
  }
}
layer {
  name: "conv1b"
  type: "Convolution"
  bottom: "conv1"
  top: "conv1b"
  convolution_param {
    num_output: 96
    kernel_size: 3
    stride: 3
    weight_filler {
      type: "xavier"
    }
    bias_filler {
      type: "constant"
      value: 0.1
    }
  }
}
layer {
  name: "relu1"
  type: "ReLU"
  bottom: "conv1b"
  top: "conv1b"
}
layer {
  name: "norm1"
  type: "LRN"
  bottom: "conv1b"
  top: "norm1"
  lrn_param {
    local_size: 5
    alpha: 0.0005
    beta: 0.75
    k: 2
  }
}
layer {
  name: "conv2"
  type: "Convolution"
  bottom: "norm1"
  top: "conv2"
  convolution_param {
    num_output: 256
    kernel_size: 3
    stride: 1
    weight_filler {
      type: "xavier"
    }
    bias_filler {
      type: "constant"
      value: 0.1
    }
  }
}
layer {
  name: "conv2b"
  type: "Convolution"
  bottom: "conv2"
  top: "conv2b"
  convolution_param {
    num_output: 256
    kernel_size: 3
    stride: 3
    weight_filler {
      type: "xavier"
    }
    bias_filler {
      type: "constant"
      value: 0.1
    }
  }
}
layer {
  name: "relu2"
  type: "ReLU"
  bottom: "conv2b"
  top: "conv2b"
}
layer {
  name: "conv3"
  type: "Convolution"
  bottom: "conv2b"
  top: "conv3"
  convolution_param {
    num_output: 512
    pad: 1
    kernel_size: 3
    stride: 1
    weight_filler {
      type: "xavier"
    }
    bias_filler {
      type: "constant"
      value: 0.1
    }
  }
}
layer {
  name: "relu3"
  type: "ReLU"
  bottom: "conv3"
  top: "conv3"
}
layer {
  name: "conv4"
  type: "Convolution"
  bottom: "conv3"
  top: "conv4"
  convolution_param {
    num_output: 512
    pad: 1
    kernel_size: 3
    weight_filler {
      type: "xavier"
    }
    bias_filler {
      type: "constant"
      value: 0.1
    }
  }
}
layer {
  name: "relu4"
  type: "ReLU"
  bottom: "conv4"
  top: "conv4"
}
layer {
  name: "conv5"
  type: "Convolution"
  bottom: "conv4"
  top: "conv5"
  convolution_param {
    num_output: 512
    pad: 1
    kernel_size: 3
    stride: 2
    weight_filler {
      type: "xavier"
    }
    bias_filler {
      type: "constant"
      value: 0.1
    }
  }
}
layer {
  name: "relu5"
  type: "ReLU"
  bottom: "conv5"
  top: "conv5"
}
layer {
  name: "fc7"
  type: "InnerProduct"
  bottom: "conv5"
  top: "fc7"
  inner_product_param {
    num_output: 2048
    weight_filler {
      type: "xavier"
    }
    bias_filler {
      type: "constant"
      value: 0.1
    }
  }
}
layer {
  name: "relu7"
  type: "ReLU"
  bottom: "fc7"
  top: "fc7"
}
layer {
  name: "drop7"
  type: "Dropout"
  bottom: "fc7"
  top: "fc7"
  dropout_param {
    dropout_ratio: 0.5
  }
}
layer {
  name: "68point"
  type: "InnerProduct"
  bottom: "fc7"
  top: "68point"
  inner_product_param {
    num_output: 136
    weight_filler {
      type: "xavier"
    }
    bias_filler {
      type: "constant"
      value: 0.1
    }
  }
}
layer {
  name: "loss"
  type: "EuclideanLoss"
  bottom: "68point"
  bottom: "label"
  top: "loss"
}
layer {
  name: "accuracy"
  type: "AccuracyDistance"
  bottom: "68point"
  bottom: "label"
  top: "eer-distance"
  accuracy_distance_param {
    dh: 224
    dw: 224
  }
}
I0608 00:49:46.001335 25049 layer_factory.hpp:77] Creating layer data
I0608 00:49:46.001377 25049 net.cpp:84] Creating Layer data
I0608 00:49:46.001389 25049 net.cpp:380] data -> data
I0608 00:49:46.001412 25049 net.cpp:380] data -> label
I0608 00:49:46.001435 25049 image_data_layer.cpp:48] Opening file /home/dell/disk/dell/camlin_zhang/data_fine/label_train.txt
I0608 00:49:46.001531 25049 image_data_layer.cpp:85] label dim: 136
I0608 00:49:46.402995 25049 image_data_layer.cpp:96] Shuffling data & randomly crop image
I0608 00:49:46.407263 25049 image_data_layer.cpp:106] A total of 11871 images.
I0608 00:49:46.409528 25049 image_data_layer.cpp:137] output data size: 32,3,224,224
I0608 00:49:46.449861 25049 net.cpp:122] Setting up data
I0608 00:49:46.449894 25049 net.cpp:129] Top shape: 32 3 224 224 (4816896)
I0608 00:49:46.449903 25049 net.cpp:129] Top shape: 32 136 (4352)
I0608 00:49:46.449909 25049 net.cpp:137] Memory required for data: 19284992
I0608 00:49:46.449919 25049 layer_factory.hpp:77] Creating layer label_data_1_split
I0608 00:49:46.449935 25049 net.cpp:84] Creating Layer label_data_1_split
I0608 00:49:46.449944 25049 net.cpp:406] label_data_1_split <- label
I0608 00:49:46.449960 25049 net.cpp:380] label_data_1_split -> label_data_1_split_0
I0608 00:49:46.449975 25049 net.cpp:380] label_data_1_split -> label_data_1_split_1
I0608 00:49:46.450037 25049 net.cpp:122] Setting up label_data_1_split
I0608 00:49:46.450047 25049 net.cpp:129] Top shape: 32 136 (4352)
I0608 00:49:46.450053 25049 net.cpp:129] Top shape: 32 136 (4352)
I0608 00:49:46.450058 25049 net.cpp:137] Memory required for data: 19319808
I0608 00:49:46.450063 25049 layer_factory.hpp:77] Creating layer conv1
I0608 00:49:46.450083 25049 net.cpp:84] Creating Layer conv1
I0608 00:49:46.450090 25049 net.cpp:406] conv1 <- data
I0608 00:49:46.450098 25049 net.cpp:380] conv1 -> conv1
I0608 00:49:46.451512 25049 net.cpp:122] Setting up conv1
I0608 00:49:46.451530 25049 net.cpp:129] Top shape: 32 96 111 111 (37850112)
I0608 00:49:46.451537 25049 net.cpp:137] Memory required for data: 170720256
I0608 00:49:46.451566 25049 layer_factory.hpp:77] Creating layer conv1b
I0608 00:49:46.451581 25049 net.cpp:84] Creating Layer conv1b
I0608 00:49:46.451587 25049 net.cpp:406] conv1b <- conv1
I0608 00:49:46.451596 25049 net.cpp:380] conv1b -> conv1b
I0608 00:49:46.454608 25049 net.cpp:122] Setting up conv1b
I0608 00:49:46.454655 25049 net.cpp:129] Top shape: 32 96 37 37 (4205568)
I0608 00:49:46.454674 25049 net.cpp:137] Memory required for data: 187542528
I0608 00:49:46.454696 25049 layer_factory.hpp:77] Creating layer relu1
I0608 00:49:46.454721 25049 net.cpp:84] Creating Layer relu1
I0608 00:49:46.454738 25049 net.cpp:406] relu1 <- conv1b
I0608 00:49:46.454756 25049 net.cpp:367] relu1 -> conv1b (in-place)
I0608 00:49:46.454776 25049 net.cpp:122] Setting up relu1
I0608 00:49:46.454793 25049 net.cpp:129] Top shape: 32 96 37 37 (4205568)
I0608 00:49:46.454816 25049 net.cpp:137] Memory required for data: 204364800
I0608 00:49:46.454852 25049 layer_factory.hpp:77] Creating layer norm1
I0608 00:49:46.454872 25049 net.cpp:84] Creating Layer norm1
I0608 00:49:46.454887 25049 net.cpp:406] norm1 <- conv1b
I0608 00:49:46.454903 25049 net.cpp:380] norm1 -> norm1
I0608 00:49:46.454962 25049 net.cpp:122] Setting up norm1
I0608 00:49:46.454982 25049 net.cpp:129] Top shape: 32 96 37 37 (4205568)
I0608 00:49:46.454996 25049 net.cpp:137] Memory required for data: 221187072
I0608 00:49:46.455010 25049 layer_factory.hpp:77] Creating layer conv2
I0608 00:49:46.455030 25049 net.cpp:84] Creating Layer conv2
I0608 00:49:46.455046 25049 net.cpp:406] conv2 <- norm1
I0608 00:49:46.455063 25049 net.cpp:380] conv2 -> conv2
I0608 00:49:46.456800 25049 net.cpp:122] Setting up conv2
I0608 00:49:46.456812 25049 net.cpp:129] Top shape: 32 256 35 35 (10035200)
I0608 00:49:46.456817 25049 net.cpp:137] Memory required for data: 261327872
I0608 00:49:46.456828 25049 layer_factory.hpp:77] Creating layer conv2b
I0608 00:49:46.456840 25049 net.cpp:84] Creating Layer conv2b
I0608 00:49:46.456845 25049 net.cpp:406] conv2b <- conv2
I0608 00:49:46.456853 25049 net.cpp:380] conv2b -> conv2b
I0608 00:49:46.462215 25049 net.cpp:122] Setting up conv2b
I0608 00:49:46.462234 25049 net.cpp:129] Top shape: 32 256 11 11 (991232)
I0608 00:49:46.462240 25049 net.cpp:137] Memory required for data: 265292800
I0608 00:49:46.462249 25049 layer_factory.hpp:77] Creating layer relu2
I0608 00:49:46.462260 25049 net.cpp:84] Creating Layer relu2
I0608 00:49:46.462266 25049 net.cpp:406] relu2 <- conv2b
I0608 00:49:46.462273 25049 net.cpp:367] relu2 -> conv2b (in-place)
I0608 00:49:46.462282 25049 net.cpp:122] Setting up relu2
I0608 00:49:46.462290 25049 net.cpp:129] Top shape: 32 256 11 11 (991232)
I0608 00:49:46.462296 25049 net.cpp:137] Memory required for data: 269257728
I0608 00:49:46.462301 25049 layer_factory.hpp:77] Creating layer conv3
I0608 00:49:46.462312 25049 net.cpp:84] Creating Layer conv3
I0608 00:49:46.462317 25049 net.cpp:406] conv3 <- conv2b
I0608 00:49:46.462326 25049 net.cpp:380] conv3 -> conv3
I0608 00:49:46.473445 25049 net.cpp:122] Setting up conv3
I0608 00:49:46.473470 25049 net.cpp:129] Top shape: 32 512 11 11 (1982464)
I0608 00:49:46.473477 25049 net.cpp:137] Memory required for data: 277187584
I0608 00:49:46.473502 25049 layer_factory.hpp:77] Creating layer relu3
I0608 00:49:46.473515 25049 net.cpp:84] Creating Layer relu3
I0608 00:49:46.473521 25049 net.cpp:406] relu3 <- conv3
I0608 00:49:46.473529 25049 net.cpp:367] relu3 -> conv3 (in-place)
I0608 00:49:46.473541 25049 net.cpp:122] Setting up relu3
I0608 00:49:46.473548 25049 net.cpp:129] Top shape: 32 512 11 11 (1982464)
I0608 00:49:46.473553 25049 net.cpp:137] Memory required for data: 285117440
I0608 00:49:46.473558 25049 layer_factory.hpp:77] Creating layer conv4
I0608 00:49:46.473570 25049 net.cpp:84] Creating Layer conv4
I0608 00:49:46.473574 25049 net.cpp:406] conv4 <- conv3
I0608 00:49:46.473582 25049 net.cpp:380] conv4 -> conv4
I0608 00:49:46.492913 25049 net.cpp:122] Setting up conv4
I0608 00:49:46.492938 25049 net.cpp:129] Top shape: 32 512 11 11 (1982464)
I0608 00:49:46.492944 25049 net.cpp:137] Memory required for data: 293047296
I0608 00:49:46.492954 25049 layer_factory.hpp:77] Creating layer relu4
I0608 00:49:46.492966 25049 net.cpp:84] Creating Layer relu4
I0608 00:49:46.492974 25049 net.cpp:406] relu4 <- conv4
I0608 00:49:46.492981 25049 net.cpp:367] relu4 -> conv4 (in-place)
I0608 00:49:46.492992 25049 net.cpp:122] Setting up relu4
I0608 00:49:46.492998 25049 net.cpp:129] Top shape: 32 512 11 11 (1982464)
I0608 00:49:46.493005 25049 net.cpp:137] Memory required for data: 300977152
I0608 00:49:46.493010 25049 layer_factory.hpp:77] Creating layer conv5
I0608 00:49:46.493022 25049 net.cpp:84] Creating Layer conv5
I0608 00:49:46.493026 25049 net.cpp:406] conv5 <- conv4
I0608 00:49:46.493033 25049 net.cpp:380] conv5 -> conv5
I0608 00:49:46.512439 25049 net.cpp:122] Setting up conv5
I0608 00:49:46.512467 25049 net.cpp:129] Top shape: 32 512 6 6 (589824)
I0608 00:49:46.512506 25049 net.cpp:137] Memory required for data: 303336448
I0608 00:49:46.512516 25049 layer_factory.hpp:77] Creating layer relu5
I0608 00:49:46.512528 25049 net.cpp:84] Creating Layer relu5
I0608 00:49:46.512536 25049 net.cpp:406] relu5 <- conv5
I0608 00:49:46.512544 25049 net.cpp:367] relu5 -> conv5 (in-place)
I0608 00:49:46.512554 25049 net.cpp:122] Setting up relu5
I0608 00:49:46.512563 25049 net.cpp:129] Top shape: 32 512 6 6 (589824)
I0608 00:49:46.512567 25049 net.cpp:137] Memory required for data: 305695744
I0608 00:49:46.512573 25049 layer_factory.hpp:77] Creating layer fc7
I0608 00:49:46.512588 25049 net.cpp:84] Creating Layer fc7
I0608 00:49:46.512593 25049 net.cpp:406] fc7 <- conv5
I0608 00:49:46.512599 25049 net.cpp:380] fc7 -> fc7
I0608 00:49:46.820971 25049 net.cpp:122] Setting up fc7
I0608 00:49:46.820998 25049 net.cpp:129] Top shape: 32 2048 (65536)
I0608 00:49:46.821005 25049 net.cpp:137] Memory required for data: 305957888
I0608 00:49:46.821017 25049 layer_factory.hpp:77] Creating layer relu7
I0608 00:49:46.821032 25049 net.cpp:84] Creating Layer relu7
I0608 00:49:46.821038 25049 net.cpp:406] relu7 <- fc7
I0608 00:49:46.821048 25049 net.cpp:367] relu7 -> fc7 (in-place)
I0608 00:49:46.821058 25049 net.cpp:122] Setting up relu7
I0608 00:49:46.821063 25049 net.cpp:129] Top shape: 32 2048 (65536)
I0608 00:49:46.821069 25049 net.cpp:137] Memory required for data: 306220032
I0608 00:49:46.821074 25049 layer_factory.hpp:77] Creating layer drop7
I0608 00:49:46.821087 25049 net.cpp:84] Creating Layer drop7
I0608 00:49:46.821092 25049 net.cpp:406] drop7 <- fc7
I0608 00:49:46.821099 25049 net.cpp:367] drop7 -> fc7 (in-place)
I0608 00:49:46.821130 25049 net.cpp:122] Setting up drop7
I0608 00:49:46.821138 25049 net.cpp:129] Top shape: 32 2048 (65536)
I0608 00:49:46.821143 25049 net.cpp:137] Memory required for data: 306482176
I0608 00:49:46.821148 25049 layer_factory.hpp:77] Creating layer 68point
I0608 00:49:46.821157 25049 net.cpp:84] Creating Layer 68point
I0608 00:49:46.821163 25049 net.cpp:406] 68point <- fc7
I0608 00:49:46.821171 25049 net.cpp:380] 68point -> 68point
I0608 00:49:46.824309 25049 net.cpp:122] Setting up 68point
I0608 00:49:46.824327 25049 net.cpp:129] Top shape: 32 136 (4352)
I0608 00:49:46.824333 25049 net.cpp:137] Memory required for data: 306499584
I0608 00:49:46.824348 25049 layer_factory.hpp:77] Creating layer 68point_68point_0_split
I0608 00:49:46.824357 25049 net.cpp:84] Creating Layer 68point_68point_0_split
I0608 00:49:46.824362 25049 net.cpp:406] 68point_68point_0_split <- 68point
I0608 00:49:46.824370 25049 net.cpp:380] 68point_68point_0_split -> 68point_68point_0_split_0
I0608 00:49:46.824379 25049 net.cpp:380] 68point_68point_0_split -> 68point_68point_0_split_1
I0608 00:49:46.824417 25049 net.cpp:122] Setting up 68point_68point_0_split
I0608 00:49:46.824426 25049 net.cpp:129] Top shape: 32 136 (4352)
I0608 00:49:46.824432 25049 net.cpp:129] Top shape: 32 136 (4352)
I0608 00:49:46.824436 25049 net.cpp:137] Memory required for data: 306534400
I0608 00:49:46.824441 25049 layer_factory.hpp:77] Creating layer loss
I0608 00:49:46.824453 25049 net.cpp:84] Creating Layer loss
I0608 00:49:46.824460 25049 net.cpp:406] loss <- 68point_68point_0_split_0
I0608 00:49:46.824467 25049 net.cpp:406] loss <- label_data_1_split_0
I0608 00:49:46.824475 25049 net.cpp:380] loss -> loss
…
I0608 00:49:46.825551 25049 net.cpp:294] The NetState phase (1) differed from the phase (0) specified by a rule in layer data
I0608 00:49:46.825719 25049 net.cpp:51] Initializing net from parameters: 
name: "mini_vgg"
state {
  phase: TEST
}
layer {
  name: "data"
  type: "ImageData"
  top: "data"
  top: "label"
  include {
    phase: TEST
  }
  transform_param {
    mirror: false
    mean_value: 127.5
    mean_value: 127.5
    mean_value: 127.5
  }
  image_data_param {
    source: "/home/dell/disk/dell/camlin_zhang/data_fine/label_val.txt"
    batch_size: 10
    shuffle: false
    root_folder: "/home/dell/disk/dell/camlin_zhang/data_fine/"
  }
}
layer {
  name: "conv1"
  type: "Convolution"
  bottom: "data"
  top: "conv1"
  convolution_param {
    num_output: 96
    kernel_size: 3
    stride: 2
    weight_filler {
      type: "xavier"
    }
    bias_filler {
      type: "constant"
      value: 0.1
    }
  }
}
layer {
  name: "conv1b"
  type: "Convolution"
  bottom: "conv1"
  top: "conv1b"
  convolution_param {
    num_output: 96
    kernel_size: 3
    stride: 3
    weight_filler {
      type: "xavier"
    }
    bias_filler {
      type: "constant"
      value: 0.1
    }
  }
}
layer {
  name: "relu1"
  type: "ReLU"
  bottom: "conv1b"
  top: "conv1b"
}
layer {
  name: "norm1"
  type: "LRN"
  bottom: "conv1b"
  top: "norm1"
  lrn_param {
    local_size: 5
    alpha: 0.0005
    beta: 0.75
    k: 2
  }
}
layer {
  name: "conv2"
  type: "Convolution"
  bottom: "norm1"
  top: "conv2"
  convolution_param {
    num_output: 256
    kernel_size: 3
    stride: 1
    weight_filler {
      type: "xavier"
    }
    bias_filler {
      type: "constant"
      value: 0.1
    }
  }
}
layer {
  name: "conv2b"
  type: "Convolution"
  bottom: "conv2"
  top: "conv2b"
  convolution_param {
    num_output: 256
    kernel_size: 3
    stride: 3
    weight_filler {
      type: "xavier"
    }
    bias_filler {
      type: "constant"
      value: 0.1
    }
  }
}
layer {
  name: "relu2"
  type: "ReLU"
  bottom: "conv2b"
  top: "conv2b"
}
layer {
  name: "conv3"
  type: "Convolution"
  bottom: "conv2b"
  top: "conv3"
  convolution_param {
    num_output: 512
    pad: 1
    kernel_size: 3
    stride: 1
    weight_filler {
      type: "xavier"
    }
    bias_filler {
      type: "constant"
      value: 0.1
    }
  }
}
layer {
  name: "relu3"
  type: "ReLU"
  bottom: "conv3"
  top: "conv3"
}
layer {
  name: "conv4"
  type: "Convolution"
  bottom: "conv3"
  top: "conv4"
  convolution_param {
    num_output: 512
    pad: 1
    kernel_size: 3
    weight_filler {
      type: "xavier"
    }
    bias_filler {
      type: "constant"
      value: 0.1
    }
  }
}
layer {
  name: "relu4"
  type: "ReLU"
  bottom: "conv4"
  top: "conv4"
}
layer {
  name: "conv5"
  type: "Convolution"
  bottom: "conv4"
  top: "conv5"
  convolution_param {
    num_output: 512
    pad: 1
    kernel_size: 3
    stride: 2
    weight_filler {
      type: "xavier"
    }
    bias_filler {
      type: "constant"
      value: 0.1
    }
  }
}
layer {
  name: "relu5"
  type: "ReLU"
  bottom: "conv5"
  top: "conv5"
}
layer {
  name: "fc7"
  type: "InnerProduct"
  bottom: "conv5"
  top: "fc7"
  inner_product_param {
    num_output: 2048
    weight_filler {
      type: "xavier"
    }
    bias_filler {
      type: "constant"
      value: 0.1
    }
  }
}
layer {
  name: "relu7"
  type: "ReLU"
  bottom: "fc7"
  top: "fc7"
}
layer {
  name: "drop7"
  type: "Dropout"
  bottom: "fc7"
  top: "fc7"
  dropout_param {
    dropout_ratio: 0.5
  }
}
layer {
  name: "68point"
  type: "InnerProduct"
  bottom: "fc7"
  top: "68point"
  inner_product_param {
    num_output: 136
    weight_filler {
      type: "xavier"
    }
    bias_filler {
      type: "constant"
      value: 0.1
    }
  }
}
layer {
  name: "loss"
  type: "EuclideanLoss"
  bottom: "68point"
  bottom: "label"
  top: "loss"
}
layer {
  name: "accuracy"
  type: "AccuracyDistance"
  bottom: "68point"
  bottom: "label"
  top: "eer-distance"
  accuracy_distance_param {
    dh: 224
    dw: 224
  }
}
I0608 00:49:46.825829 25049 layer_factory.hpp:77] Creating layer data
I0608 00:49:46.825846 25049 net.cpp:84] Creating Layer data
I0608 00:49:46.825853 25049 net.cpp:380] data -> data
I0608 00:49:46.825865 25049 net.cpp:380] data -> label
I0608 00:49:46.825875 25049 image_data_layer.cpp:48] Opening file /home/dell/disk/dell/camlin_zhang/data_fine/label_val.txt
I0608 00:49:46.825934 25049 image_data_layer.cpp:85] label dim: 136
I0608 00:49:46.875777 25049 image_data_layer.cpp:106] A total of 1491 images.
I0608 00:49:46.876909 25049 image_data_layer.cpp:137] output data size: 10,3,224,224
I0608 00:49:46.891427 25049 net.cpp:122] Setting up data
I0608 00:49:46.891454 25049 net.cpp:129] Top shape: 10 3 224 224 (1505280)
I0608 00:49:46.891463 25049 net.cpp:129] Top shape: 10 136 (1360)
I0608 00:49:46.891468 25049 net.cpp:137] Memory required for data: 6026560
I0608 00:49:46.891476 25049 layer_factory.hpp:77] Creating layer label_data_1_split
I0608 00:49:46.891500 25049 net.cpp:84] Creating Layer label_data_1_split
I0608 00:49:46.891507 25049 net.cpp:406] label_data_1_split <- label
I0608 00:49:46.891516 25049 net.cpp:380] label_data_1_split -> label_data_1_split_0
I0608 00:49:46.891530 25049 net.cpp:380] label_data_1_split -> label_data_1_split_1
I0608 00:49:46.891674 25049 net.cpp:122] Setting up label_data_1_split
I0608 00:49:46.891682 25049 net.cpp:129] Top shape: 10 136 (1360)
I0608 00:49:46.891688 25049 net.cpp:129] Top shape: 10 136 (1360)
I0608 00:49:46.891693 25049 net.cpp:137] Memory required for data: 6037440
I0608 00:49:46.891698 25049 layer_factory.hpp:77] Creating layer conv1
I0608 00:49:46.891713 25049 net.cpp:84] Creating Layer conv1
I0608 00:49:46.891741 25049 net.cpp:406] conv1 <- data
I0608 00:49:46.891750 25049 net.cpp:380] conv1 -> conv1
I0608 00:49:46.892047 25049 net.cpp:122] Setting up conv1
I0608 00:49:46.892058 25049 net.cpp:129] Top shape: 10 96 111 111 (11828160)
I0608 00:49:46.892063 25049 net.cpp:137] Memory required for data: 53350080
I0608 00:49:46.892076 25049 layer_factory.hpp:77] Creating layer conv1b
I0608 00:49:46.892088 25049 net.cpp:84] Creating Layer conv1b
I0608 00:49:46.892096 25049 net.cpp:406] conv1b <- conv1
I0608 00:49:46.892102 25049 net.cpp:380] conv1b -> conv1b
I0608 00:49:46.892928 25049 net.cpp:122] Setting up conv1b
I0608 00:49:46.892940 25049 net.cpp:129] Top shape: 10 96 37 37 (1314240)
I0608 00:49:46.892944 25049 net.cpp:137] Memory required for data: 58607040
I0608 00:49:46.892954 25049 layer_factory.hpp:77] Creating layer relu1
I0608 00:49:46.892964 25049 net.cpp:84] Creating Layer relu1
I0608 00:49:46.892969 25049 net.cpp:406] relu1 <- conv1b
I0608 00:49:46.892976 25049 net.cpp:367] relu1 -> conv1b (in-place)
I0608 00:49:46.892984 25049 net.cpp:122] Setting up relu1
I0608 00:49:46.892992 25049 net.cpp:129] Top shape: 10 96 37 37 (1314240)
I0608 00:49:46.892995 25049 net.cpp:137] Memory required for data: 63864000
I0608 00:49:46.893000 25049 layer_factory.hpp:77] Creating layer norm1
I0608 00:49:46.893008 25049 net.cpp:84] Creating Layer norm1
I0608 00:49:46.893013 25049 net.cpp:406] norm1 <- conv1b
I0608 00:49:46.893019 25049 net.cpp:380] norm1 -> norm1
I0608 00:49:46.893059 25049 net.cpp:122] Setting up norm1
I0608 00:49:46.893069 25049 net.cpp:129] Top shape: 10 96 37 37 (1314240)
I0608 00:49:46.893072 25049 net.cpp:137] Memory required for data: 69120960
I0608 00:49:46.893077 25049 layer_factory.hpp:77] Creating layer conv2
I0608 00:49:46.893087 25049 net.cpp:84] Creating Layer conv2
I0608 00:49:46.893095 25049 net.cpp:406] conv2 <- norm1
I0608 00:49:46.893101 25049 net.cpp:380] conv2 -> conv2
I0608 00:49:46.895906 25049 net.cpp:122] Setting up conv2
I0608 00:49:46.895925 25049 net.cpp:129] Top shape: 10 256 35 35 (3136000)
I0608 00:49:46.895931 25049 net.cpp:137] Memory required for data: 81664960
I0608 00:49:46.895942 25049 layer_factory.hpp:77] Creating layer conv2b
I0608 00:49:46.895954 25049 net.cpp:84] Creating Layer conv2b
I0608 00:49:46.895961 25049 net.cpp:406] conv2b <- conv2
I0608 00:49:46.895968 25049 net.cpp:380] conv2b -> conv2b
I0608 00:49:46.901326 25049 net.cpp:122] Setting up conv2b
I0608 00:49:46.901347 25049 net.cpp:129] Top shape: 10 256 11 11 (309760)
I0608 00:49:46.901355 25049 net.cpp:137] Memory required for data: 82904000
I0608 00:49:46.901363 25049 layer_factory.hpp:77] Creating layer relu2
I0608 00:49:46.901374 25049 net.cpp:84] Creating Layer relu2
I0608 00:49:46.901382 25049 net.cpp:406] relu2 <- conv2b
I0608 00:49:46.901391 25049 net.cpp:367] relu2 -> conv2b (in-place)
I0608 00:49:46.901401 25049 net.cpp:122] Setting up relu2
I0608 00:49:46.901407 25049 net.cpp:129] Top shape: 10 256 11 11 (309760)
I0608 00:49:46.901412 25049 net.cpp:137] Memory required for data: 84143040
I0608 00:49:46.901417 25049 layer_factory.hpp:77] Creating layer conv3
I0608 00:49:46.901427 25049 net.cpp:84] Creating Layer conv3
I0608 00:49:46.901433 25049 net.cpp:406] conv3 <- conv2b
I0608 00:49:46.901441 25049 net.cpp:380] conv3 -> conv3
I0608 00:49:46.911486 25049 net.cpp:122] Setting up conv3
I0608 00:49:46.911514 25049 net.cpp:129] Top shape: 10 512 11 11 (619520)
I0608 00:49:46.911520 25049 net.cpp:137] Memory required for data: 86621120
I0608 00:49:46.911535 25049 layer_factory.hpp:77] Creating layer relu3
I0608 00:49:46.911550 25049 net.cpp:84] Creating Layer relu3
I0608 00:49:46.911554 25049 net.cpp:406] relu3 <- conv3
I0608 00:49:46.911563 25049 net.cpp:367] relu3 -> conv3 (in-place)
I0608 00:49:46.911572 25049 net.cpp:122] Setting up relu3
I0608 00:49:46.911578 25049 net.cpp:129] Top shape: 10 512 11 11 (619520)
I0608 00:49:46.911583 25049 net.cpp:137] Memory required for data: 89099200
I0608 00:49:46.911588 25049 layer_factory.hpp:77] Creating layer conv4
I0608 00:49:46.911622 25049 net.cpp:84] Creating Layer conv4
I0608 00:49:46.911628 25049 net.cpp:406] conv4 <- conv3
I0608 00:49:46.911635 25049 net.cpp:380] conv4 -> conv4
I0608 00:49:46.930968 25049 net.cpp:122] Setting up conv4
I0608 00:49:46.931040 25049 net.cpp:129] Top shape: 10 512 11 11 (619520)
I0608 00:49:46.931057 25049 net.cpp:137] Memory required for data: 91577280
I0608 00:49:46.931077 25049 layer_factory.hpp:77] Creating layer relu4
I0608 00:49:46.931098 25049 net.cpp:84] Creating Layer relu4
I0608 00:49:46.931114 25049 net.cpp:406] relu4 <- conv4
I0608 00:49:46.931133 25049 net.cpp:367] relu4 -> conv4 (in-place)
I0608 00:49:46.931154 25049 net.cpp:122] Setting up relu4
I0608 00:49:46.931169 25049 net.cpp:129] Top shape: 10 512 11 11 (619520)
I0608 00:49:46.931183 25049 net.cpp:137] Memory required for data: 94055360
I0608 00:49:46.931197 25049 layer_factory.hpp:77] Creating layer conv5
I0608 00:49:46.931219 25049 net.cpp:84] Creating Layer conv5
I0608 00:49:46.931236 25049 net.cpp:406] conv5 <- conv4
I0608 00:49:46.931252 25049 net.cpp:380] conv5 -> conv5
I0608 00:49:46.951159 25049 net.cpp:122] Setting up conv5
I0608 00:49:46.951185 25049 net.cpp:129] Top shape: 10 512 6 6 (184320)
I0608 00:49:46.951192 25049 net.cpp:137] Memory required for data: 94792640
I0608 00:49:46.951202 25049 layer_factory.hpp:77] Creating layer relu5
I0608 00:49:46.951215 25049 net.cpp:84] Creating Layer relu5
I0608 00:49:46.951221 25049 net.cpp:406] relu5 <- conv5
I0608 00:49:46.951231 25049 net.cpp:367] relu5 -> conv5 (in-place)
I0608 00:49:46.951241 25049 net.cpp:122] Setting up relu5
I0608 00:49:46.951248 25049 net.cpp:129] Top shape: 10 512 6 6 (184320)
I0608 00:49:46.951256 25049 net.cpp:137] Memory required for data: 95529920
I0608 00:49:46.951261 25049 layer_factory.hpp:77] Creating layer fc7
I0608 00:49:46.951270 25049 net.cpp:84] Creating Layer fc7
I0608 00:49:46.951277 25049 net.cpp:406] fc7 <- conv5
I0608 00:49:46.951283 25049 net.cpp:380] fc7 -> fc7
I0608 00:49:47.259322 25049 net.cpp:122] Setting up fc7
I0608 00:49:47.259351 25049 net.cpp:129] Top shape: 10 2048 (20480)
I0608 00:49:47.259356 25049 net.cpp:137] Memory required for data: 95611840
I0608 00:49:47.259368 25049 layer_factory.hpp:77] Creating layer relu7
I0608 00:49:47.259383 25049 net.cpp:84] Creating Layer relu7
I0608 00:49:47.259392 25049 net.cpp:406] relu7 <- fc7
I0608 00:49:47.259402 25049 net.cpp:367] relu7 -> fc7 (in-place)
I0608 00:49:47.259413 25049 net.cpp:122] Setting up relu7
I0608 00:49:47.259420 25049 net.cpp:129] Top shape: 10 2048 (20480)
I0608 00:49:47.259426 25049 net.cpp:137] Memory required for data: 95693760
I0608 00:49:47.259431 25049 layer_factory.hpp:77] Creating layer drop7
I0608 00:49:47.259439 25049 net.cpp:84] Creating Layer drop7
I0608 00:49:47.259444 25049 net.cpp:406] drop7 <- fc7
I0608 00:49:47.259451 25049 net.cpp:367] drop7 -> fc7 (in-place)
I0608 00:49:47.259482 25049 net.cpp:122] Setting up drop7
I0608 00:49:47.259498 25049 net.cpp:129] Top shape: 10 2048 (20480)
I0608 00:49:47.259505 25049 net.cpp:137] Memory required for data: 95775680
I0608 00:49:47.259508 25049 layer_factory.hpp:77] Creating layer 68point
I0608 00:49:47.259519 25049 net.cpp:84] Creating Layer 68point
I0608 00:49:47.259524 25049 net.cpp:406] 68point <- fc7
I0608 00:49:47.259532 25049 net.cpp:380] 68point -> 68point
I0608 00:49:47.261590 25049 net.cpp:122] Setting up 68point
I0608 00:49:47.261601 25049 net.cpp:129] Top shape: 10 136 (1360)
I0608 00:49:47.261607 25049 net.cpp:137] Memory required for data: 95781120
I0608 00:49:47.261620 25049 layer_factory.hpp:77] Creating layer 68point_68point_0_split
I0608 00:49:47.261628 25049 net.cpp:84] Creating Layer 68point_68point_0_split
I0608 00:49:47.261636 25049 net.cpp:406] 68point_68point_0_split <- 68point
I0608 00:49:47.261643 25049 net.cpp:380] 68point_68point_0_split -> 68point_68point_0_split_0
I0608 00:49:47.261652 25049 net.cpp:380] 68point_68point_0_split -> 68point_68point_0_split_1
I0608 00:49:47.261690 25049 net.cpp:122] Setting up 68point_68point_0_split
I0608 00:49:47.261699 25049 net.cpp:129] Top shape: 10 136 (1360)
I0608 00:49:47.261729 25049 net.cpp:129] Top shape: 10 136 (1360)
I0608 00:49:47.261734 25049 net.cpp:137] Memory required for data: 95792000
I0608 00:49:47.261739 25049 layer_factory.hpp:77] Creating layer loss
I0608 00:49:47.261746 25049 net.cpp:84] Creating Layer loss
I0608 00:49:47.261752 25049 net.cpp:406] loss <- 68point_68point_0_split_0
I0608 00:49:47.261759 25049 net.cpp:406] loss <- label_data_1_split_0
I0608 00:49:47.261765 25049 net.cpp:380] loss -> loss
…
